…
/output/exp1/eval.shomuradova.result.json'}, {'data': 'immunecode', 'result': '../output/exp1/eval.immunecode.result.json'}]}}
2021-09-14 21:25:16 [INFO]: Create TAPE model using config: ../config/bert-base/
2021-09-14 21:25:18 [INFO]: Loading the eval model from ../output/exp1/train.1.model_37.chk
2021-09-14 21:29:39 [INFO]: ======================
2021-09-14 21:29:39 [INFO]: Begin predict...
2021-09-14 21:29:39 [INFO]: use_cuda, device: False, cpu
2021-09-14 21:29:39 [INFO]: model: BertTCREpitopeModel(
  (bert): ProteinBertModel(
    (embeddings): ProteinBertEmbeddings(
      (word_embeddings): Embedding(30, 768, padding_idx=0)
      (position_embeddings): Embedding(8192, 768)
      (token_type_embeddings): Embedding(1, 768)
      (LayerNorm): LayerNorm()
      (dropout): Dropout(p=0.1)
    )
    (encoder): ProteinBertEncoder(
      (layer): ModuleList(
        (0): ProteinBertLayer(
          (attention): ProteinBertAttention(
            (self): ProteinBertSelfAttention(
              (query): Linear(in_features=768, out_features=768, bias=True)
              (key): Linear(in_features=768, out_features=768, bias=True)
              (value): Linear(in_features=768, out_features=768, bias=True)
              (dropout): Dropout(p=0.1)
            )
            (output): ProteinBertSelfOutput(
              (dense): Linear(in_features=768, out_features=768, bias=True)
              (LayerNorm): LayerNorm()
              (dropout): Dropout(p=0.1)
            )
          )
          (intermediate): ProteinBertIntermediate(
            (dense): Linear(in_features=768, out_features=3072, bias=True)
          )
          (output): ProteinBertOutput(
            (dense): Linear(in_features=3072, out_features=768, bias=True)
            (LayerNorm): LayerNorm()
            (dropout): Dropout(p=0.1)
          )
        )
        (1): ProteinBertLayer(
          (attention): ProteinBertAttention(
            (self): ProteinBertSelfAttention(
              (query): Linear(in_features=768, out_features=768, bias=True)
              (key): Linear(in_features=768, out_features=768, bias=True)
              (value): Linear(in_features=768, out_features=768, bias=True)
              (dropout): Dropout(p=0.1)
            )
            (output): ProteinBertSelfOutput(
              (dense): Linear(in_features=768, out_features=768, bias=True)
              (LayerNorm): LayerNorm()
              (dropout): Dropout(p=0.1)
            )
          )
          (intermediate): ProteinBertIntermediate(
            (dense): Linear(in_features=768, out_features=3072, bias=True)
          )
          (output): ProteinBertOutput(
            (dense): Linear(in_features=3072, out_features=768, bias=True)
            (LayerNorm): LayerNorm()
            (dropout): Dropout(p=0.1)
          )
        )
        (2): ProteinBertLayer(
          (attention): ProteinBertAttention(
            (self): ProteinBertSelfAttention(
              (query): Linear(in_features=768, out_features=768, bias=True)
              (key): Linear(in_features=768, out_features=768, bias=True)
              (value): Linear(in_features=768, out_features=768, bias=True)
              (dropout): Dropout(p=0.1)
            )
            (output): ProteinBertSelfOutput(
              (dense): Linear(in_features=768, out_features=768, bias=True)
              (LayerNorm): LayerNorm()
              (dropout): Dropout(p=0.1)
            )
          )
          (intermediate): ProteinBertIntermediate(
            (dense): Linear(in_features=768, out_features=3072, bias=True)
          )
          (output): ProteinBertOutput(
            (dense): Linear(in_features=3072, out_features=768, bias=True)
            (LayerNorm): LayerNorm()
            (dropout): Dropout(p=0.1)
          )
        )
        (3): ProteinBertLayer(
          (attention): ProteinBertAttention(
            (self): ProteinBertSelfAttention(
              (query): Linear(in_features=768, out_features=768, bias=True)
              (key): Linear(in_features=768, out_features=768, bias=True)
              (value): Linear(in_features=768, out_features=768, bias=True)
              (dropout): Dropout(p=0.1)
            )
            (output): ProteinBertSelfOutput(
              (dense): Linear(in_features=768, out_features=768, bias=True)
              (LayerNorm): LayerNorm()
              (dropout): Dropout(p=0.1)
            )
          )
          (intermediate): ProteinBertIntermediate(
            (dense): Linear(in_features=768, out_features=3072, bias=True)
          )
          (output): ProteinBertOutput(
            (dense): Linear(in_features=3072, out_features=768, bias=True)
            (LayerNorm): LayerNorm()
            (dropout): Dropout(p=0.1)
          )
        )
        (4): ProteinBertLayer(
          (attention): ProteinBertAttention(
            (self): ProteinBertSelfAttention(
              (query): Linear(in_features=768, out_features=768, bias=True)
              (key): Linear(in_features=768, out_features=768, bias=True)
              (value): Linear(in_features=768, out_features=768, bias=True)
              (dropout): Dropout(p=0.1)
            )
            (output): ProteinBertSelfOutput(
              (dense): Linear(in_features=768, out_features=768, bias=True)
              (LayerNorm): LayerNorm()
              (dropout): Dropout(p=0.1)
            )
          )
          (intermediate): ProteinBertIntermediate(
            (dense): Linear(in_features=768, out_features=3072, bias=True)
          )
          (output): ProteinBertOutput(
            (dense): Linear(in_features=3072, out_features=768, bias=True)
            (LayerNorm): LayerNorm()
            (dropout): Dropout(p=0.1)
          )
        )
        (5): ProteinBertLayer(
          (attention): ProteinBertAttention(
            (self): ProteinBertSelfAttention(
              (query): Linear(in_features=768, out_features=768, bias=True)
              (key): Linear(in_features=768, out_features=768, bias=True)
              (value): Linear(in_features=768, out_features=768, bias=True)
              (dropout): Dropout(p=0.1)
            )
            (output): ProteinBertSelfOutput(
              (dense): Linear(in_features=768, out_features=768, bias=True)
              (LayerNorm): LayerNorm()
              (dropout): Dropout(p=0.1)
            )
          )
          (intermediate): ProteinBertIntermediate(
            (dense): Linear(in_features=768, out_features=3072, bias=True)
          )
          (output): ProteinBertOutput(
            (dense): Linear(in_features=3072, out_features=768, bias=True)
            (LayerNorm): LayerNorm()
            (dropout): Dropout(p=0.1)
          )
        )
        (6): ProteinBertLayer(
          (attention): ProteinBertAttention(
            (self): ProteinBertSelfAttention(
              (query): Linear(in_features=768, out_features=768, bias=True)
              (key): Linear(in_features=768, out_features=768, bias=True)
              (value): Linear(in_features=768, out_features=768, bias=True)
              (dropout): Dropout(p=0.1)
            )
            (output): ProteinBertSelfOutput(
              (dense): Linear(in_features=768, out_features=768, bias=True)
              (LayerNorm): LayerNorm()
              (dropout): Dropout(p=0.1)
            )
          )
          (intermediate): ProteinBertIntermediate(
            (dense): Linear(in_features=768, out_features=3072, bias=True)
          )
          (output): ProteinBertOutput(
            (dense): Linear(in_features=3072, out_features=768, bias=True)
            (LayerNorm): LayerNorm()
            (dropout): Dropout(p=0.1)
          )
        )
        (7): ProteinBertLayer(
          (attention): ProteinBertAttention(
            (self): ProteinBertSelfAttention(
              (query): Linear(in_features=768, out_features=768, bias=True)
              (key): Linear(in_features=768, out_features=768, bias=True)
              (value): Linear(in_features=768, out_features=768, bias=True)
              (dropout): Dropout(p=0.1)
            )
            (output): ProteinBertSelfOutput(
              (dense): Linear(in_features=768, out_features=768, bias=True)
              (LayerNorm): LayerNorm()
              (dropout): Dropout(p=0.1)
            )
          )
          (intermediate): ProteinBertIntermediate(
            (dense): Linear(in_features=768, out_features=3072, bias=True)
          )
          (output): ProteinBertOutput(
            (dense): Linear(in_features=3072, out_features=768, bias=True)
            (LayerNorm): LayerNorm()
            (dropout): Dropout(p=0.1)
          )
        )
        (8): ProteinBertLayer(
          (attention): ProteinBertAttention(
            (self): ProteinBertSelfAttention(
              (query): Linear(in_features=768, out_features=768, bias=True)
              (key): Linear(in_features=768, out_features=768, bias=True)
              (value): Linear(in_features=768, out_features=768, bias=True)
              (dropout): Dropout(p=0.1)
            )
            (output): ProteinBertSelfOutput(
              (dense): Linear(in_features=768, out_features=768, bias=True)
              (LayerNorm): LayerNorm()
              (dropout): Dropout(p=0.1)
            )
          )
          (intermediate): ProteinBertIntermediate(
            (dense): Linear(in_features=768, out_features=3072, bias=True)
          )
          (output): ProteinBertOutput(
            (dense): Linear(in_features=3072, out_features=768, bias=True)
            (LayerNorm): LayerNorm()
            (dropout): Dropout(p=0.1)
          )
        )
        (9): ProteinBertLayer(
          (attention): ProteinBertAttention(
            (self): ProteinBertSelfAttention(
              (query): Linear(in_features=768, out_features=768, bias=True)
              (key): Linear(in_features=768, out_features=768, bias=True)
              (value): Linear(in_features=768, out_features=768, bias=True)
              (dropout): Dropout(p=0.1)
            )
            (output): ProteinBertSelfOutput(
              (dense): Linear(in_features=768, out_features=768, bias=True)
              (LayerNorm): LayerNorm()
              (dropout): Dropout(p=0.1)
            )
          )
          (intermediate): ProteinBertIntermediate(
            (dense): Linear(in_features=768, out_features=3072, bias=True)
          )
          (output): ProteinBertOutput(
            (dense): Linear(in_features=3072, out_features=768, bias=True)
            (LayerNorm): LayerNorm()
            (dropout): Dropout(p=0.1)
          )
        )
        (10): ProteinBertLayer(
          (attention): ProteinBertAttention(
            (self): ProteinBertSelfAttention(
              (query): Linear(in_features=768, out_features=768, bias=True)
              (key): Linear(in_features=768, out_features=768, bias=True)
              (value): Linear(in_features=768, out_features=768, bias=True)
              (dropout): Dropout(p=0.1)
            )
            (output): ProteinBertSelfOutput(
              (dense): Linear(in_features=768, out_features=768, bias=True)
              (LayerNorm): LayerNorm()
              (dropout): Dropout(p=0.1)
            )
          )
          (intermediate): ProteinBertIntermediate(
            (dense): Linear(in_features=768, out_features=3072, bias=True)
          )
          (output): ProteinBertOutput(
            (dense): Linear(in_features=3072, out_features=768, bias=True)
            (LayerNorm): LayerNorm()
            (dropout): Dropout(p=0.1)
          )
        )
        (11): ProteinBertLayer(
          (attention): ProteinBertAttention(
            (self): ProteinBertSelfAttention(
              (query): Linear(in_features=768, out_features=768, bias=True)
              (key): Linear(in_features=768, out_features=768, bias=True)
              (value): Linear(in_features=768, out_features=768, bias=True)
              (dropout): Dropout(p=0.1)
            )
            (output): ProteinBertSelfOutput(
              (dense): Linear(in_features=768, out_features=768, bias=True)
              (LayerNorm): LayerNorm()
              (dropout): Dropout(p=0.1)
            )
          )
          (intermediate): ProteinBertIntermediate(
            (dense): Linear(in_features=768, out_features=3072, bias=True)
          )
          (output): ProteinBertOutput(
            (dense): Linear(in_features=3072, out_features=768, bias=True)
            (LayerNorm): LayerNorm()
            (dropout): Dropout(p=0.1)
          )
        )
      )
    )
    (pooler): ProteinBertPooler(
      (dense): Linear(in_features=768, out_features=768, bias=True)
      (activation): Tanh()
    )
  )
  (classifier): SimpleMLP(
    (main): Sequential(
      (0): Linear(in_features=768, out_features=512, bias=True)
      (1): ReLU()
      (2): Dropout(p=0.0, inplace)
      (3): Linear(in_features=512, out_features=2, bias=True)
    )
  )
)
2021-09-14 21:29:39 [INFO]: n_data: 610
2021-09-14 21:29:39 [INFO]: batch_size: 610
2021-09-14 21:29:39 [INFO]: Begin 0/1 prediction batch
2021-09-14 21:30:18 [INFO]: End 0/1 prediction batch
2021-09-14 21:30:18 [INFO]: Done to predict...
2021-09-14 21:30:18 [INFO]: ======================
2021-09-14 21:59:53 [INFO]: ======================
2021-09-14 21:59:53 [INFO]: Begin predict...
2021-09-14 21:59:53 [INFO]: use_cuda, device: False, cpu
2021-09-14 21:59:53 [INFO]: model: BertTCREpitopeModel(
  (bert): ProteinBertModel(
    (embeddings): ProteinBertEmbeddings(
      (word_embeddings): Embedding(30, 768, padding_idx=0)
      (position_embeddings): Embedding(8192, 768)
      (token_type_embeddings): Embedding(1, 768)
      (LayerNorm): LayerNorm()
      (dropout): Dropout(p=0.1)
    )
    (encoder): ProteinBertEncoder(
      (layer): ModuleList(
        (0): ProteinBertLayer(
          (attention): ProteinBertAttention(
            (self): ProteinBertSelfAttention(
              (query): Linear(in_features=768, out_features=768, bias=True)
              (key): Linear(in_features=768, out_features=768, bias=True)
              (value): Linear(in_features=768, out_features=768, bias=True)
              (dropout): Dropout(p=0.1)
            )
            (output): ProteinBertSelfOutput(
              (dense): Linear(in_features=768, out_features=768, bias=True)
              (LayerNorm): LayerNorm()
              (dropout): Dropout(p=0.1)
            )
          )
          (intermediate): ProteinBertIntermediate(
            (dense): Linear(in_features=768, out_features=3072, bias=True)
          )
          (output): ProteinBertOutput(
            (dense): Linear(in_features=3072, out_features=768, bias=True)
            (LayerNorm): LayerNorm()
            (dropout): Dropout(p=0.1)
          )
        )
        (1): ProteinBertLayer(
          (attention): ProteinBertAttention(
            (self): ProteinBertSelfAttention(
              (query): Linear(in_features=768, out_features=768, bias=True)
              (key): Linear(in_features=768, out_features=768, bias=True)
              (value): Linear(in_features=768, out_features=768, bias=True)
              (dropout): Dropout(p=0.1)
            )
            (output): ProteinBertSelfOutput(
              (dense): Linear(in_features=768, out_features=768, bias=True)
              (LayerNorm): LayerNorm()
              (dropout): Dropout(p=0.1)
            )
          )
          (intermediate): ProteinBertIntermediate(
            (dense): Linear(in_features=768, out_features=3072, bias=True)
          )
          (output): ProteinBertOutput(
            (dense): Linear(in_features=3072, out_features=768, bias=True)
            (LayerNorm): LayerNorm()
            (dropout): Dropout(p=0.1)
          )
        )
        (2): ProteinBertLayer(
          (attention): ProteinBertAttention(
            (self): ProteinBertSelfAttention(
              (query): Linear(in_features=768, out_features=768, bias=True)
              (key): Linear(in_features=768, out_features=768, bias=True)
              (value): Linear(in_features=768, out_features=768, bias=True)
              (dropout): Dropout(p=0.1)
            )
            (output): ProteinBertSelfOutput(
              (dense): Linear(in_features=768, out_features=768, bias=True)
              (LayerNorm): LayerNorm()
              (dropout): Dropout(p=0.1)
            )
          )
          (intermediate): ProteinBertIntermediate(
            (dense): Linear(in_features=768, out_features=3072, bias=True)
          )
          (output): ProteinBertOutput(
            (dense): Linear(in_features=3072, out_features=768, bias=True)
            (LayerNorm): LayerNorm()
            (dropout): Dropout(p=0.1)
          )
        )
        (3): ProteinBertLayer(
          (attention): ProteinBertAttention(
            (self): ProteinBertSelfAttention(
              (query): Linear(in_features=768, out_features=768, bias=True)
              (key): Linear(in_features=768, out_features=768, bias=True)
              (value): Linear(in_features=768, out_features=768, bias=True)
              (dropout): Dropout(p=0.1)
            )
            (output): ProteinBertSelfOutput(
              (dense): Linear(in_features=768, out_features=768, bias=True)
              (LayerNorm): LayerNorm()
              (dropout): Dropout(p=0.1)
            )
          )
          (intermediate): ProteinBertIntermediate(
            (dense): Linear(in_features=768, out_features=3072, bias=True)
          )
          (output): ProteinBertOutput(
            (dense): Linear(in_features=3072, out_features=768, bias=True)
            (LayerNorm): LayerNorm()
            (dropout): Dropout(p=0.1)
          )
        )
        (4): ProteinBertLayer(
          (attention): ProteinBertAttention(
            (self): ProteinBertSelfAttention(
              (query): Linear(in_features=768, out_features=768, bias=True)
              (key): Linear(in_features=768, out_features=768, bias=True)
              (value): Linear(in_features=768, out_features=768, bias=True)
              (dropout): Dropout(p=0.1)
            )
            (output): ProteinBertSelfOutput(
              (dense): Linear(in_features=768, out_features=768, bias=True)
              (LayerNorm): LayerNorm()
              (dropout): Dropout(p=0.1)
            )
          )
          (intermediate): ProteinBertIntermediate(
            (dense): Linear(in_features=768, out_features=3072, bias=True)
          )
          (output): ProteinBertOutput(
            (dense): Linear(in_features=3072, out_features=768, bias=True)
            (LayerNorm): LayerNorm()
            (dropout): Dropout(p=0.1)
          )
        )
        (5): ProteinBertLayer(
          (attention): ProteinBertAttention(
            (self): ProteinBertSelfAttention(
              (query): Linear(in_features=768, out_features=768, bias=True)
              (key): Linear(in_features=768, out_features=768, bias=True)
              (value): Linear(in_features=768, out_features=768, bias=True)
              (dropout): Dropout(p=0.1)
            )
            (output): ProteinBertSelfOutput(
              (dense): Linear(in_features=768, out_features=768, bias=True)
              (LayerNorm): LayerNorm()
              (dropout): Dropout(p=0.1)
            )
          )
          (intermediate): ProteinBertIntermediate(
            (dense): Linear(in_features=768, out_features=3072, bias=True)
          )
          (output): ProteinBertOutput(
            (dense): Linear(in_features=3072, out_features=768, bias=True)
            (LayerNorm): LayerNorm()
            (dropout): Dropout(p=0.1)
          )
        )
        (6): ProteinBertLayer(
          (attention): ProteinBertAttention(
            (self): ProteinBertSelfAttention(
              (query): Linear(in_features=768, out_features=768, bias=True)
              (key): Linear(in_features=768, out_features=768, bias=True)
              (value): Linear(in_features=768, out_features=768, bias=True)
              (dropout): Dropout(p=0.1)
            )
            (output): ProteinBertSelfOutput(
              (dense): Linear(in_features=768, out_features=768, bias=True)
              (LayerNorm): LayerNorm()
              (dropout): Dropout(p=0.1)
            )
          )
          (intermediate): ProteinBertIntermediate(
            (dense): Linear(in_features=768, out_features=3072, bias=True)
          )
          (output): ProteinBertOutput(
            (dense): Linear(in_features=3072, out_features=768, bias=True)
            (LayerNorm): LayerNorm()
            (dropout): Dropout(p=0.1)
          )
        )
        (7): ProteinBertLayer(
          (attention): ProteinBertAttention(
            (self): ProteinBertSelfAttention(
              (query): Linear(in_features=768, out_features=768, bias=True)
              (key): Linear(in_features=768, out_features=768, bias=True)
              (value): Linear(in_features=768, out_features=768, bias=True)
              (dropout): Dropout(p=0.1)
            )
            (output): ProteinBertSelfOutput(
              (dense): Linear(in_features=768, out_features=768, bias=True)
              (LayerNorm): LayerNorm()
              (dropout): Dropout(p=0.1)
            )
          )
          (intermediate): ProteinBertIntermediate(
            (dense): Linear(in_features=768, out_features=3072, bias=True)
          )
          (output): ProteinBertOutput(
            (dense): Linear(in_features=3072, out_features=768, bias=True)
            (LayerNorm): LayerNorm()
            (dropout): Dropout(p=0.1)
          )
        )
        (8): ProteinBertLayer(
          (attention): ProteinBertAttention(
            (self): ProteinBertSelfAttention(
              (query): Linear(in_features=768, out_features=768, bias=True)
              (key): Linear(in_features=768, out_features=768, bias=True)
              (value): Linear(in_features=768, out_features=768, bias=True)
              (dropout): Dropout(p=0.1)
            )
            (output): ProteinBertSelfOutput(
              (dense): Linear(in_features=768, out_features=768, bias=True)
              (LayerNorm): LayerNorm()
              (dropout): Dropout(p=0.1)
            )
          )
          (intermediate): ProteinBertIntermediate(
            (dense): Linear(in_features=768, out_features=3072, bias=True)
          )
          (output): ProteinBertOutput(
            (dense): Linear(in_features=3072, out_features=768, bias=True)
            (LayerNorm): LayerNorm()
            (dropout): Dropout(p=0.1)
          )
        )
        (9): ProteinBertLayer(
          (attention): ProteinBertAttention(
            (self): ProteinBertSelfAttention(
              (query): Linear(in_features=768, out_features=768, bias=True)
              (key): Linear(in_features=768, out_features=768, bias=True)
              (value): Linear(in_features=768, out_features=768, bias=True)
              (dropout): Dropout(p=0.1)
            )
            (output): ProteinBertSelfOutput(
              (dense): Linear(in_features=768, out_features=768, bias=True)
              (LayerNorm): LayerNorm()
              (dropout): Dropout(p=0.1)
            )
          )
          (intermediate): ProteinBertIntermediate(
            (dense): Linear(in_features=768, out_features=3072, bias=True)
          )
          (output): ProteinBertOutput(
            (dense): Linear(in_features=3072, out_features=768, bias=True)
            (LayerNorm): LayerNorm()
            (dropout): Dropout(p=0.1)
          )
        )
        (10): ProteinBertLayer(
          (attention): ProteinBertAttention(
            (self): ProteinBertSelfAttention(
              (query): Linear(in_features=768, out_features=768, bias=True)
              (key): Linear(in_features=768, out_features=768, bias=True)
              (value): Linear(in_features=768, out_features=768, bias=True)
              (dropout): Dropout(p=0.1)
            )
            (output): ProteinBertSelfOutput(
              (dense): Linear(in_features=768, out_features=768, bias=True)
              (LayerNorm): LayerNorm()
              (dropout): Dropout(p=0.1)
            )
          )
          (intermediate): ProteinBertIntermediate(
            (dense): Linear(in_features=768, out_features=3072, bias=True)
          )
          (output): ProteinBertOutput(
            (dense): Linear(in_features=3072, out_features=768, bias=True)
            (LayerNorm): LayerNorm()
            (dropout): Dropout(p=0.1)
          )
        )
        (11): ProteinBertLayer(
          (attention): ProteinBertAttention(
            (self): ProteinBertSelfAttention(
              (query): Linear(in_features=768, out_features=768, bias=True)
              (key): Linear(in_features=768, out_features=768, bias=True)
              (value): Linear(in_features=768, out_features=768, bias=True)
              (dropout): Dropout(p=0.1)
            )
            (output): ProteinBertSelfOutput(
              (dense): Linear(in_features=768, out_features=768, bias=True)
              (LayerNorm): LayerNorm()
              (dropout): Dropout(p=0.1)
            )
          )
          (intermediate): ProteinBertIntermediate(
            (dense): Linear(in_features=768, out_features=3072, bias=True)
          )
          (output): ProteinBertOutput(
            (dense): Linear(in_features=3072, out_features=768, bias=True)
            (LayerNorm): LayerNorm()
            (dropout): Dropout(p=0.1)
          )
        )
      )
    )
    (pooler): ProteinBertPooler(
      (dense): Linear(in_features=768, out_features=768, bias=True)
      (activation): Tanh()
    )
  )
  (classifier): SimpleMLP(
    (main): Sequential(
      (0): Linear(in_features=768, out_features=512, bias=True)
      (1): ReLU()
      (2): Dropout(p=0.0, inplace)
      (3): Linear(in_features=512, out_features=2, bias=True)
    )
  )
)
2021-09-14 21:59:53 [INFO]: n_data: 610
2021-09-14 21:59:53 [INFO]: batch_size: 610
2021-09-14 21:59:53 [INFO]: Begin 0/1 prediction batch
2021-09-14 22:00:32 [INFO]: End 0/1 prediction batch
2021-09-14 22:00:32 [INFO]: Done to predict...
2021-09-14 22:00:32 [INFO]: ======================
2021-09-15 21:35:13 [INFO]: Loaded exp_conf: {'title':
…
/output/exp1/eval.shomuradova.result.json'}, {'data': 'immunecode', 'result': '../output/exp1/eval.immunecode.result.json'}]}}
2021-09-15 21:35:13 [INFO]: Create TAPE model using config: ../config/bert-base/
2021-09-15 21:35:15 [INFO]: Loading the eval model from ../output/exp1/train.1.model_37.chk
2021-09-15 21:35:20 [INFO]: ======================
2021-09-15 21:35:20 [INFO]: Begin predict...
2021-09-15 21:35:20 [INFO]: use_cuda, device: False, cpu
2021-09-15 21:35:20 [INFO]: model: BertTCREpitopeModel(
  (bert): ProteinBertModel(
    (embeddings): ProteinBertEmbeddings(
      (word_embeddings): Embedding(30, 768, padding_idx=0)
      (position_embeddings): Embedding(8192, 768)
      (token_type_embeddings): Embedding(1, 768)
      (LayerNorm): LayerNorm()
      (dropout): Dropout(p=0.1)
    )
    (encoder): ProteinBertEncoder(
      (layer): ModuleList(
        (0): ProteinBertLayer(
          (attention): ProteinBertAttention(
            (self): ProteinBertSelfAttention(
              (query): Linear(in_features=768, out_features=768, bias=True)
              (key): Linear(in_features=768, out_features=768, bias=True)
              (value): Linear(in_features=768, out_features=768, bias=True)
              (dropout): Dropout(p=0.1)
            )
            (output): ProteinBertSelfOutput(
              (dense): Linear(in_features=768, out_features=768, bias=True)
              (LayerNorm): LayerNorm()
              (dropout): Dropout(p=0.1)
            )
          )
          (intermediate): ProteinBertIntermediate(
            (dense): Linear(in_features=768, out_features=3072, bias=True)
          )
          (output): ProteinBertOutput(
            (dense): Linear(in_features=3072, out_features=768, bias=True)
            (LayerNorm): LayerNorm()
            (dropout): Dropout(p=0.1)
          )
        )
        (1): ProteinBertLayer(
          (attention): ProteinBertAttention(
            (self): ProteinBertSelfAttention(
              (query): Linear(in_features=768, out_features=768, bias=True)
              (key): Linear(in_features=768, out_features=768, bias=True)
              (value): Linear(in_features=768, out_features=768, bias=True)
              (dropout): Dropout(p=0.1)
            )
            (output): ProteinBertSelfOutput(
              (dense): Linear(in_features=768, out_features=768, bias=True)
              (LayerNorm): LayerNorm()
              (dropout): Dropout(p=0.1)
            )
          )
          (intermediate): ProteinBertIntermediate(
            (dense): Linear(in_features=768, out_features=3072, bias=True)
          )
          (output): ProteinBertOutput(
            (dense): Linear(in_features=3072, out_features=768, bias=True)
            (LayerNorm): LayerNorm()
            (dropout): Dropout(p=0.1)
          )
        )
        (2): ProteinBertLayer(
          (attention): ProteinBertAttention(
            (self): ProteinBertSelfAttention(
              (query): Linear(in_features=768, out_features=768, bias=True)
              (key): Linear(in_features=768, out_features=768, bias=True)
              (value): Linear(in_features=768, out_features=768, bias=True)
              (dropout): Dropout(p=0.1)
            )
            (output): ProteinBertSelfOutput(
              (dense): Linear(in_features=768, out_features=768, bias=True)
              (LayerNorm): LayerNorm()
              (dropout): Dropout(p=0.1)
            )
          )
          (intermediate): ProteinBertIntermediate(
            (dense): Linear(in_features=768, out_features=3072, bias=True)
          )
          (output): ProteinBertOutput(
            (dense): Linear(in_features=3072, out_features=768, bias=True)
            (LayerNorm): LayerNorm()
            (dropout): Dropout(p=0.1)
          )
        )
        (3): ProteinBertLayer(
          (attention): ProteinBertAttention(
            (self): ProteinBertSelfAttention(
              (query): Linear(in_features=768, out_features=768, bias=True)
              (key): Linear(in_features=768, out_features=768, bias=True)
              (value): Linear(in_features=768, out_features=768, bias=True)
              (dropout): Dropout(p=0.1)
            )
            (output): ProteinBertSelfOutput(
              (dense): Linear(in_features=768, out_features=768, bias=True)
              (LayerNorm): LayerNorm()
              (dropout): Dropout(p=0.1)
            )
          )
          (intermediate): ProteinBertIntermediate(
            (dense): Linear(in_features=768, out_features=3072, bias=True)
          )
          (output): ProteinBertOutput(
            (dense): Linear(in_features=3072, out_features=768, bias=True)
            (LayerNorm): LayerNorm()
            (dropout): Dropout(p=0.1)
          )
        )
        (4): ProteinBertLayer(
          (attention): ProteinBertAttention(
            (self): ProteinBertSelfAttention(
              (query): Linear(in_features=768, out_features=768, bias=True)
              (key): Linear(in_features=768, out_features=768, bias=True)
              (value): Linear(in_features=768, out_features=768, bias=True)
              (dropout): Dropout(p=0.1)
            )
            (output): ProteinBertSelfOutput(
              (dense): Linear(in_features=768, out_features=768, bias=True)
              (LayerNorm): LayerNorm()
              (dropout): Dropout(p=0.1)
            )
          )
          (intermediate): ProteinBertIntermediate(
            (dense): Linear(in_features=768, out_features=3072, bias=True)
          )
          (output): ProteinBertOutput(
            (dense): Linear(in_features=3072, out_features=768, bias=True)
            (LayerNorm): LayerNorm()
            (dropout): Dropout(p=0.1)
          )
        )
        (5): ProteinBertLayer(
          (attention): ProteinBertAttention(
            (self): ProteinBertSelfAttention(
              (query): Linear(in_features=768, out_features=768, bias=True)
              (key): Linear(in_features=768, out_features=768, bias=True)
              (value): Linear(in_features=768, out_features=768, bias=True)
              (dropout): Dropout(p=0.1)
            )
            (output): ProteinBertSelfOutput(
              (dense): Linear(in_features=768, out_features=768, bias=True)
              (LayerNorm): LayerNorm()
              (dropout): Dropout(p=0.1)
            )
          )
          (intermediate): ProteinBertIntermediate(
            (dense): Linear(in_features=768, out_features=3072, bias=True)
          )
          (output): ProteinBertOutput(
            (dense): Linear(in_features=3072, out_features=768, bias=True)
            (LayerNorm): LayerNorm()
            (dropout): Dropout(p=0.1)
          )
        )
        (6): ProteinBertLayer(
          (attention): ProteinBertAttention(
            (self): ProteinBertSelfAttention(
              (query): Linear(in_features=768, out_features=768, bias=True)
              (key): Linear(in_features=768, out_features=768, bias=True)
              (value): Linear(in_features=768, out_features=768, bias=True)
              (dropout): Dropout(p=0.1)
            )
            (output): ProteinBertSelfOutput(
              (dense): Linear(in_features=768, out_features=768, bias=True)
              (LayerNorm): LayerNorm()
              (dropout): Dropout(p=0.1)
            )
          )
          (intermediate): ProteinBertIntermediate(
            (dense): Linear(in_features=768, out_features=3072, bias=True)
          )
          (output): ProteinBertOutput(
            (dense): Linear(in_features=3072, out_features=768, bias=True)
            (LayerNorm): LayerNorm()
            (dropout): Dropout(p=0.1)
          )
        )
        (7): ProteinBertLayer(
          (attention): ProteinBertAttention(
            (self): ProteinBertSelfAttention(
              (query): Linear(in_features=768, out_features=768, bias=True)
              (key): Linear(in_features=768, out_features=768, bias=True)
              (value): Linear(in_features=768, out_features=768, bias=True)
              (dropout): Dropout(p=0.1)
            )
            (output): ProteinBertSelfOutput(
              (dense): Linear(in_features=768, out_features=768, bias=True)
              (LayerNorm): LayerNorm()
              (dropout): Dropout(p=0.1)
            )
          )
          (intermediate): ProteinBertIntermediate(
            (dense): Linear(in_features=768, out_features=3072, bias=True)
          )
          (output): ProteinBertOutput(
            (dense): Linear(in_features=3072, out_features=768, bias=True)
            (LayerNorm): LayerNorm()
            (dropout): Dropout(p=0.1)
          )
        )
        (8): ProteinBertLayer(
          (attention): ProteinBertAttention(
            (self): ProteinBertSelfAttention(
              (query): Linear(in_features=768, out_features=768, bias=True)
              (key): Linear(in_features=768, out_features=768, bias=True)
              (value): Linear(in_features=768, out_features=768, bias=True)
              (dropout): Dropout(p=0.1)
            )
            (output): ProteinBertSelfOutput(
              (dense): Linear(in_features=768, out_features=768, bias=True)
              (LayerNorm): LayerNorm()
              (dropout): Dropout(p=0.1)
            )
          )
          (intermediate): ProteinBertIntermediate(
            (dense): Linear(in_features=768, out_features=3072, bias=True)
          )
          (output): ProteinBertOutput(
            (dense): Linear(in_features=3072, out_features=768, bias=True)
            (LayerNorm): LayerNorm()
            (dropout): Dropout(p=0.1)
          )
        )
        (9): ProteinBertLayer(
          (attention): ProteinBertAttention(
            (self): ProteinBertSelfAttention(
              (query): Linear(in_features=768, out_features=768, bias=True)
              (key): Linear(in_features=768, out_features=768, bias=True)
              (value): Linear(in_features=768, out_features=768, bias=True)
              (dropout): Dropout(p=0.1)
            )
            (output): ProteinBertSelfOutput(
              (dense): Linear(in_features=768, out_features=768, bias=True)
              (LayerNorm): LayerNorm()
              (dropout): Dropout(p=0.1)
            )
          )
          (intermediate): ProteinBertIntermediate(
            (dense): Linear(in_features=768, out_features=3072, bias=True)
          )
          (output): ProteinBertOutput(
            (dense): Linear(in_features=3072, out_features=768, bias=True)
            (LayerNorm): LayerNorm()
            (dropout): Dropout(p=0.1)
          )
        )
        (10): ProteinBertLayer(
          (attention): ProteinBertAttention(
            (self): ProteinBertSelfAttention(
              (query): Linear(in_features=768, out_features=768, bias=True)
              (key): Linear(in_features=768, out_features=768, bias=True)
              (value): Linear(in_features=768, out_features=768, bias=True)
              (dropout): Dropout(p=0.1)
            )
            (output): ProteinBertSelfOutput(
              (dense): Linear(in_features=768, out_features=768, bias=True)
              (LayerNorm): LayerNorm()
              (dropout): Dropout(p=0.1)
            )
          )
          (intermediate): ProteinBertIntermediate(
            (dense): Linear(in_features=768, out_features=3072, bias=True)
          )
          (output): ProteinBertOutput(
            (dense): Linear(in_features=3072, out_features=768, bias=True)
            (LayerNorm): LayerNorm()
            (dropout): Dropout(p=0.1)
          )
        )
        (11): ProteinBertLayer(
          (attention): ProteinBertAttention(
            (self): ProteinBertSelfAttention(
              (query): Linear(in_features=768, out_features=768, bias=True)
              (key): Linear(in_features=768, out_features=768, bias=True)
              (value): Linear(in_features=768, out_features=768, bias=True)
              (dropout): Dropout(p=0.1)
            )
            (output): ProteinBertSelfOutput(
              (dense): Linear(in_features=768, out_features=768, bias=True)
              (LayerNorm): LayerNorm()
              (dropout): Dropout(p=0.1)
            )
          )
          (intermediate): ProteinBertIntermediate(
            (dense): Linear(in_features=768, out_features=3072, bias=True)
          )
          (output): ProteinBertOutput(
            (dense): Linear(in_features=3072, out_features=768, bias=True)
            (LayerNorm): LayerNorm()
            (dropout): Dropout(p=0.1)
          )
        )
      )
    )
    (pooler): ProteinBertPooler(
      (dense): Linear(in_features=768, out_features=768, bias=True)
      (activation): Tanh()
    )
  )
  (classifier): SimpleMLP(
    (main): Sequential(
      (0): Linear(in_features=768, out_features=512, bias=True)
      (1): ReLU()
      (2): Dropout(p=0.0, inplace)
      (3): Linear(in_features=512, out_features=2, bias=True)
    )
  )
)
2021-09-15 21:35:20 [INFO]: n_data: 610
2021-09-15 21:35:20 [INFO]: batch_size: 610
2021-09-15 21:35:20 [INFO]: Begin 0/1 prediction batch
2021-09-15 21:35:29 [INFO]: End 0/1 prediction batch
2021-09-15 21:35:29 [INFO]: Done to predict...
2021-09-15 21:35:29 [INFO]: ======================
2021-09-16 03:37:11 [INFO]: Loaded exp_conf: {'title':
…
